…
input_0 (InputLayer)            (None, 100, 25, 25,  0                                            
__________________________________________________________________________________________________
input_1 (InputLayer)            (None, 100, 25, 25,  0                                            
__________________________________________________________________________________________________
input_2 (InputLayer)            (None, 100, 25, 25,  0                                            
__________________________________________________________________________________________________
time_distributed_1 (TimeDistrib (None, 100, 2048)    259008      input_0[0][0]                    
__________________________________________________________________________________________________
time_distributed_2 (TimeDistrib (None, 100, 2048)    259008      input_1[0][0]                    
__________________________________________________________________________________________________
time_distributed_3 (TimeDistrib (None, 100, 2048)    259008      input_2[0][0]                    
__________________________________________________________________________________________________
permute_1 (Permute)             (None, 2048, 100)    0           time_distributed_1[0][0]         
__________________________________________________________________________________________________
permute_3 (Permute)             (None, 2048, 100)    0           time_distributed_2[0][0]         
__________________________________________________________________________________________________
permute_5 (Permute)             (None, 2048, 100)    0           time_distributed_3[0][0]         
__________________________________________________________________________________________________
dense_1 (Dense)                 (None, 2048, 100)    10100       permute_1[0][0]                  
__________________________________________________________________________________________________
dense_2 (Dense)                 (None, 2048, 100)    10100       permute_3[0][0]                  
__________________________________________________________________________________________________
dense_3 (Dense)                 (None, 2048, 100)    10100       permute_5[0][0]                  
__________________________________________________________________________________________________
permute_2 (Permute)             (None, 100, 2048)    0           dense_1[0][0]                    
__________________________________________________________________________________________________
permute_4 (Permute)             (None, 100, 2048)    0           dense_2[0][0]                    
__________________________________________________________________________________________________
permute_6 (Permute)             (None, 100, 2048)    0           dense_3[0][0]                    
__________________________________________________________________________________________________
multiply_1 (Multiply)           (None, 100, 2048)    0           time_distributed_1[0][0]         
                                                                 permute_2[0][0]                  
__________________________________________________________________________________________________
multiply_2 (Multiply)           (None, 100, 2048)    0           time_distributed_2[0][0]         
                                                                 permute_4[0][0]                  
__________________________________________________________________________________________________
multiply_3 (Multiply)           (None, 100, 2048)    0           time_distributed_3[0][0]         
                                                                 permute_6[0][0]                  
__________________________________________________________________________________________________
bidirectional_1 (Bidirectional) (None, 100, 256)     2229248     multiply_1[0][0]                 
__________________________________________________________________________________________________
bidirectional_3 (Bidirectional) (None, 100, 256)     2229248     multiply_2[0][0]                 
__________________________________________________________________________________________________
bidirectional_5 (Bidirectional) (None, 100, 256)     2229248     multiply_3[0][0]                 
__________________________________________________________________________________________________
concatenate_1 (Concatenate)     (None, 100, 2304)    0           bidirectional_1[0][0]            
                                                                 multiply_1[0][0]                 
__________________________________________________________________________________________________
concatenate_3 (Concatenate)     (None, 100, 2304)    0           bidirectional_3[0][0]            
                                                                 multiply_2[0][0]                 
__________________________________________________________________________________________________
concatenate_5 (Concatenate)     (None, 100, 2304)    0           bidirectional_5[0][0]            
                                                                 multiply_3[0][0]                 
__________________________________________________________________________________________________
bidirectional_2 (Bidirectional) (None, 100, 512)     5244928     concatenate_1[0][0]              
__________________________________________________________________________________________________
bidirectional_4 (Bidirectional) (None, 100, 512)     5244928     concatenate_3[0][0]              
__________________________________________________________________________________________________
bidirectional_6 (Bidirectional) (None, 100, 512)     5244928     concatenate_5[0][0]              
__________________________________________________________________________________________________
concatenate_2 (Concatenate)     (None, 100, 2560)    0           bidirectional_2[0][0]            
                                                                 multiply_1[0][0]                 
__________________________________________________________________________________________________
concatenate_4 (Concatenate)     (None, 100, 2560)    0           bidirectional_4[0][0]            
                                                                 multiply_2[0][0]                 
__________________________________________________________________________________________________
concatenate_6 (Concatenate)     (None, 100, 2560)    0           bidirectional_6[0][0]            
                                                                 multiply_3[0][0]                 
__________________________________________________________________________________________________
concatenate_7 (Concatenate)     (None, 100, 7680)    0           concatenate_2[0][0]              
                                                                 concatenate_4[0][0]              
                                                                 concatenate_6[0][0]              
__________________________________________________________________________________________________
lstm_7 (LSTM)                   (None, 100, 256)     8127488     concatenate_7[0][0]              
__________________________________________________________________________________________________
flatten_2 (Flatten)             (None, 25600)        0           lstm_7[0][0]                     
__________________________________________________________________________________________________
dropout_2 (Dropout)             (None, 25600)        0           flatten_2[0][0]                  
__________________________________________________________________________________________________
dense_4 (Dense)                 (None, 100)          2560100     dropout_2[0][0]                  
==================================================================================================
Total params: 33,399,424
Trainable params: 33,399,424
Non-trainable params: 0
__________________________________________________________________________________________________
None
Time for building and compiling the model: 21.806 s
Epoch 1/30
